runs/cartpole1.pt (torch, 273556 bytes, 9 tensors)

fc1.weight f4 [128, 4]
0.6173774 0.7006635 0.47008058 0.53620756 0.20339017 -0.29166386 -0.5296956 0.21954535
0.17163788 -0.2978732 0.20542102 0.22920494 0.7896379 0.00023072767 -1.0902188 -0.4172617
-0.03968031 -0.009930773 -0.02618261 0.25258556 0.6091021 -0.24445188 -0.7034879 -0.14022271
-0.3631628 0.49275643 -0.4149967 0.31268877 0.037177127 0.79782486 1.4717016 0.6072732
0.43697393 -0.036819752 0.08230633 0.14437519 0.54217213 -0.5063275 -0.4036146 0.035984017
0.019681802 0.48368484 0.35700876 0.51119834 -0.23308909 -0.05636098 0.001053533 -0.24812812
0.21734078 -0.16690172 -0.40308988 -0.2781702 0.2863794 -0.20171258 -0.7081639 0.41997018
-0.1147396 -0.43565273 -1.4469804 -0.48797688 -0.20479465 -0.6817763 -0.07333542 0.022863172
-0.13514635 -0.20172033 0.27746868 -0.24853396 -0.019870818 -0.03370565 0.014551878 -0.02910161
-0.32246894 0.5327673 0.62594366 -0.39312273 0.11934113 -0.43701357 -1.2794142 -0.49287668
0.029823853 -0.8528059 -1.3948493 -0.57424545 -0.19827943 -0.1499054 -0.13515013 -0.37406528
0.19798094 0.23058562 -0.4097754 0.029773964 -0.16898616 0.48230824 0.53625757 -0.3914112
-0.8182915 -0.4710445 0.37131914 0.40475664 -0.19070399 0.09965726 0.118285224 0.28706303
0.10602145 0.23585132 0.61276275 -0.28398165 -0.14063416 -0.49378043 -0.6072235 0.22345044
-1.0400225 -0.43702483 0.6833371 0.18151358 -0.6091722 -0.3667691 1.2871078 0.16822997
0.1377814 0.014849689 0.1789981 -0.22980884 0.9596175 0.119361214 -0.52231735 -0.5455989
-0.5946277 0.4478289 0.8910021 0.65399927 -0.44362202 -0.6559115 -1.4095583 -0.52635103
0.55976367 0.040037066 -0.4447927 -0.08248298 -0.00621276 0.4520294 0.16812374 0.019186132
-0.22063361 0.31317082 0.29616475 0.06897945 -0.23591682 -0.10192131 -1.2516512 -0.67984635
0.51711017 -0.37434098 -1.0455185 0.31341323 -0.14683166 -0.5702572 -1.0342969 -0.6191703
0.6657654 -0.6242422 -0.2225743 -0.05976557 -0.110207856 0.061932884 0.30373615 0.20521888
0.075787514 0.39487725 0.76854855 -0.24443726 -0.4430509 0.5433519 1.6393819 0.7228313
-0.19557998 0.15835167 1.6797887 0.48220667 0.90158546 -0.08379082 -1.2975801 -0.55997455
-0.21206671 -0.6393503 -0.65430784 0.08024523 0.03404317 -0.5045434 -0.105783224 0.17897102
-0.7753352 0.24928215 0.84402424 0.43898207 -0.29824245 0.07991843 -0.45768052 0.08105291
-0.41989124 0.53451484 0.7666677 -0.11900096 -0.039951097 -0.88618666 -1.4203913 -0.57811344
-0.53653795 0.52187693 0.7708801 -0.24368662 -0.4848077 -0.024835372 -1.0927942 -0.7506091
0.06789379 -0.2880508 -0.013070613 -0.29109636 -0.11106794 -0.43355483 -0.46788946 0.19567145
0.17751779 0.24757916 0.16170143 0.35513076 -0.030696945 0.05245838 1.3545936 0.7328092
-1.0042777 -0.40307727 0.2956462 0.31239638 0.15416981 0.46084416 0.83298993 0.6843927
0.1470243 0.06599543 -1.5907847 -0.5955341 -0.7982318 0.3799947 0.90336084 0.33195037
0.9577123 0.4468404 0.5282468 0.5742372 -0.16702712 0.4171908 0.862068 0.68057793
00000000: 720c 1e3f af5e 333f 67ae f03e e644 093f
00000010: 8345 503e f754 95be 219a 07bf 7fd0 603e
00000020: d7c1 2f3e d682 98be e359 523e b3b4 6a3e
00000030: b625 4a3f 7def 7139 4a8c 8bbf 53a3 d5be
00000040: d287 22bd aeb4 22bc ea7c d6bc e552 813e
00000050: 1dee 1b3f 9851 7abe c817 34bf 8b96 0fbe
00000060: 79f0 b9be 924a fc3e 737a d4be be18 a03e
00000070: 0b47 183d 403e 4c3f b860 bc3f 4276 1b3f
00000080: 0cbb df3e 4fd0 16bd 3990 a83d 17d7 133e
00000090: cbcb 0a3f ae9e 01bf 93a6 cebe fa63 133d
000000a0: bb3b a13c 8aa5 f73e dac9 b63e e5dd 023f
000000b0: e8ae 6ebe c5da 66bd b416 8a3a 4c15 7ebe
000000c0: 958e 5e3e 49e8 2abe cc61 cebe 536c 8ebe
000000d0: 52a0 923e be8d 4ebe 3b4a 35bf 5506 d73e
000000e0: 98fc eabd e00d dfbe a736 b9bf 1bd8 f9be
000000f0: b0b5 51be e488 2ebf e130 96bd 8c4b bb3c
00000100: ce63 0abe c68f 4ebe 6010 8e3e b07f 7ebe
00000110: 20c8 a2bc f00e 0abd 006b 6e3c 8066 eebc
00000120: a61a a5be 7063 083f d83d 203f 6247 c9be
00000130: 1f69 f43d 3ec0 dfbe d8c3 a3bf 555a fcbe
00000140: 2751 f43c 7d51 5abf 6c8a b2bf c001 13bf
00000150: c309 4bbe cd80 19be cc64 0abe 7c85 bfbe
00000160: 84bb 4a3e a31e 6c3e 15ce d1be 87e8 f33c
00000170: b50a 2dbe 1bf1 f63e 2d48 093f 0c67 c8be
00000180: 8d7b 51bf bf2c f1be 8b1d be3e 433c cf3e
00000190: e847 43be 1b19 cc3d 863f f23d edf9 923e
000001a0: c621 d93d 0283 713e 05de 1c3f 0b66 91be
000001b0: 6702 10be cad0 fcbe 0073 1bbf 31d0 643e
000001c0: 751f 85bf b8c1 dfbe 2eef 2e3f b2de 393e
000001d0: b6f2 1bbf 29c9 bbbe f3bf a43f 7a44 2c3e
000001e0: 9116 0d3e 1c4c 733c 474b 373e 0253 6bbe
000001f0: 7ea9 753f a773 f43d 97b6 05bf 5fac 0bbf
00000200: 8539 18bf d449 e53e b718 643f 7f6c 273f
00000210: 6d22 e3be d1e9 27bf 686c b4bf f1be 06bf
00000220: ac4c 0f3f e8fd 233d debb e3be d6ec a8bd
00000230: 6994 cbbb 6670 e73e a128 2c3e 3c2c 9d3c
00000240: c7ed 61be ed57 a03e e8a2 973e 1945 8d3d
00000250: 2e94 71be 1fbc d0bd 1b36 a0bf 690a 2ebf
00000260: 5561 043f 9fa9 bfbe 8dd3 85bf b377 a03e
00000270: 0a5b 16be 60fc 11bf d763 84bf f281 1ebf
00000280: 9a6f 2a3f 56ce 1fbf 84ea 63be becc 74bd
00000290: a8b4 e1bd 56ad 7d3d 4e83 9b3e e624 523e
000002a0: 7c36 9b3d 5a2d ca3e 99bf 443f c34d 7abe
000002b0: 91d7 e2be 1c19 0b3f 44d7 d13f 790b 393f
000002c0: 1e46 48be f126 223e 5103 d73f cbe3 f63e
000002d0: 4ece 663f 859a abbd 1b17 a6bf 7e5a 0fbf
000002e0: 0428 59be 76ac 23bf b880 27bf 9c57 a43d
000002f0: da70 0b3d c229 01bf e0a4 d8bd 2e44 373e
00000300: 5e7c 46bf d243 7f3e f911 583f 42c2 e03e
00000310: 3cb3 98be 46ac a33d 1a55 eabe 11ff a53d
00000320: fcfb d6be f7d5 083f 5644 443f c6b6 f3bd
00000330: c3a3 23bd 21dd 62bf 62cf b5bf 3eff 13bf
00000340: 8d5a 09bf ba99 053f 6658 453f fc88 79be
00000350: b738 f8be 8d73 cbbc aee0 8bbf eb27 40bf
00000360: e60b 8b3d 657b 93be 2026 56bc 950a 95be
00000370: 9777 e3bd e6fa ddbe 358f efbe 195e 483e
00000380: 39c7 353e 6485 7d3e 0f95 253e b3d3 b53e
00000390: 2978 fbbc 99de 563d 5363 ad3f 6299 3b3f
000003a0: 2c8c 80bf 2560 cebe f05e 973e 6bf2 9f3e
000003b0: b1de 1d3e c4f3 eb3e d43e 553f 5c34 2f3f
000003c0: 8a8d 163e 9d28 873d d59e cbbf ec74 18bf
000003d0: eb58 4cbf aa8e c23e a842 673f 66f5 a93e
000003e0: a22c 753f 44c8 e43e 2f3b 073f 3601 133f
000003f0: 2809 2bbe 089a d53e 7db0 5c3f 5b3a 2e3f

fc1.bias f4 [128]
0.32147455 0.11686046 0.788457 -0.42982894 0.4880868 0.24497661 0.5255889 -0.122175686
0.5538539 -0.34843212 0.6644812 0.6101888 0.6108214 0.20589854 -0.33989328 0.27293986
0.6569921 -0.38032478 0.32125628 0.8538396 -0.16509958 0.7729782 0.62740254 0.3412511
0.011923131 0.49222118 0.6861089 -0.08967044 -0.23270011 -0.57838285 0.720237 -0.06989024
-0.5816154 -0.025202299 0.54905015 0.51395965 0.4332363 -0.1997092 0.028060671 -0.36253896
0.09696854 0.54519415 0.5818132 -0.5852837 -0.31382543 -0.43731642 -0.0054762415 0.27521482
-0.5801243 0.69642854 -0.049739532 0.24661335 0.11963749 -0.16814058 0.6449321 0.32142594
0.71532303 -0.369092 -0.45617592 -0.16948707 0.2707101 0.9652181 -0.010428935 -0.27601543
0.30470142 0.7256947 0.27848175 0.53560364 0.7601652 0.23508772 -0.42640376 -0.08620163
-0.27875865 -0.3989141 -0.37571734 -0.21001863 -0.0517162 0.75950754 -0.18254423 0.63371724
0.38912642 -0.032835107 0.106294416 0.47224146 0.9500392 0.6140728 0.32111642 -0.6809451
0.34623182 0.07957996 0.43803978 -0.12092226 0.34285772 -0.25330698 0.07913403 0.5302905
0.54529744 0.55593306 -0.1172227 0.25742087 -0.0013417943 0.09678244 0.6256334 0.54570854
-0.06696567 0.5092615 -0.13228671 0.13162111 -0.44174477 0.28646177 0.11326007 0.4148866
0.122106045 0.44937927 -0.43995914 -0.31561473 -0.5127667 -0.255843 -0.4909945 0.39737576
0.7012655 -0.15138488 0.644573 0.7220136 0.092934355 -0.3053605 0.4541397 0.6805683
00000000: 5098 a43e 8954 ef3d 51d8 493f 8a12 dcbe
00000010: 83e6 f93e 26db 7a3e ff8c 063f 3f37 fabd
00000020: 5fc9 0d3f b265 b2be 711b 2a3f 5535 1c3f
00000030: cb5e 1c3f 11d7 523e 7e06 aebe c6be 8b3e
00000040: a230 283f eeb9 c2be b47b a43e 3b95 5a3f
00000050: dd0f 29be e6e1 453f 749d 203f 77b8 ae3e
00000060: 3c59 433c 6a04 fc3e d5a4 2f3f 23a5 b7bd
00000070: f048 6ebe e610 14bf 7461 383f 9d22 8fbd
00000080: bfe4 14bf 0d75 cebc 8d8e 0c3f dc92 033f
00000090: 26d1 dd3e 9280 4cbe 7edf e53c b59e b9be
000000a0: 7197 c63d d891 0b3f b6f1 143f 27d5 15bf
000000b0: baad a0be f0e7 dfbe 0b72 b3bb f5e8 8c3e
000000c0: 0783 14bf 2449 323f aebb 4bbd 3688 7c3e
000000d0: 8004 f53d 0b2d 2cbe 451a 253f f191 a43e
000000e0: 691f 373f a0f9 bcbe e48f e9be 058e 2dbe
000000f0: 849a 8a3e 8918 773f 20de 2abc e551 8dbe
00000100: d301 9c3e 21c7 393f 2995 8e3e 521d 093f
00000110: 309a 423f d6ba 703e 9851 dabe 7b8a b0bd
00000120: 74b9 8ebe 783e ccbe 065e c0be 200f 57be
00000130: 5ed4 53bd 166f 423f e0ec 3abe 4b3b 223f
00000140: 943b c73e 1b7e 06bd e3b0 d93d a2c9 f13e
00000150: c535 733f e033 1d3f 5f69 a43e 6b52 2ebf
00000160: 4c45 b13e d1fa a23d c046 e03e 17a6 f7bd
00000170: 0c8b af3e 74b1 81be 0611 a23d 1ec1 073f
00000180: 9d98 0b3f a151 0e3f 7412 f0bd abcc 833e
00000190: 25df afba df35 c63d 8329 203f 8eb3 0b3f
000001a0: 4c25 89bd f65e 023f 2b76 07be afc7 063e
000001b0: 5f2c e2be 1eab 923e e5f4 e73d 046c d43e
000001c0: bc12 fa3d 0a15 e63e 5342 e1be 4198 a1be
000001d0: ae44 03bf dbfd 82be a263 fbbe d674 cb3e
000001e0: 2386 333f a304 1bbe bc02 253f e2d5 383f
000001f0: 5e54 be3d 3658 9cbe 0085 e83e b939 2e3f

fc_value.weight f4 [256, 128]
-0.061643727 -0.071527176 0.047496166 0.043257855 0.015844233 0.0075583537 -0.05381795 -0.037811298
-0.047593035 -0.0802006 0.007288824 -0.0690322 0.011845512 -0.019044556 -0.09563233 0.059022225
0.0251194 0.021570712 0.0149800265 0.004939782 0.046151213 -0.00041031576 0.034089673 0.071919315
-0.007353854 0.054990042 0.05365461 -0.098021545 -0.09067653 0.03243316 -0.10138377 -0.014892974
0.042488627 0.06691079 0.039441783 0.06559503 -0.05893822 -0.054582555 0.030345583 -0.027752975
-0.05305812 -0.03889404 0.025130967 -0.029752377 -0.05334436 0.023079013 -0.08120665 -0.061673727
-0.06559384 0.050738256 -0.044588603 -0.0010535904 0.0045160116 -0.07669399 0.028861178 -0.008771998
-0.0053852056 -0.06840283 -0.05782197 0.03789781 -0.014943089 0.0050096023 -0.07243709 0.015719969
0.01151053 0.011332851 -0.07797181 -0.023130748 -0.09379167 0.016636947 0.039561447 0.076788224
0.079305105 -0.043699123 -0.10188472 0.05957196 0.06070965 -0.09912525 -0.06817701 -0.020250613
-0.028731376 -0.02649294 0.0076597505 0.03516239 -0.021016702 0.05083161 0.028900577 -0.029567532
0.053844515 0.046608426 0.05258131 -0.010073155 -0.022010667 0.02915747 -0.06035229 0.028771566
-0.08019337 -0.059723277 -0.055048294 0.02529633 0.02363944 0.0682426 -0.091367364 -0.08493774
-0.049785405 -0.097126864 -0.04281642 0.042305753 0.028789375 -0.07113713 -0.06309492 0.05886472
0.004836836 -0.029897975 0.050355192 -0.0840068 0.009648792 -0.10010256 -0.0466932 -0.055819154
-0.06837184 -0.07655228 -0.015846234 0.034119047 -0.076851025 0.05814485 0.0008141176 0.039941315
0.019532695 -0.025115822 0.007281916 -0.08459919 0.019852439 -0.089326836 -0.004479379 -0.07205006
0.026515158 -0.08080962 -0.038604703 -0.059498087 0.012339454 -0.014475963 -0.07228829 -0.05126767
-0.035097938 -0.08405755 0.06707625 0.0016211473 -0.05354151 -0.08624068 -0.016719244 0.023207026
-0.07505472 -0.050372582 0.008250944 0.045564495 0.0609203 -0.02844787 -0.049592145 -0.008701283
0.030311348 -0.010702844 0.05909214 0.052860454 0.062496476 0.005729882 -0.07301883 0.061841886
0.06567473 -0.015793255 -0.06823852 -0.0036021878 0.04751216 -0.054595932 -0.01775072 -0.07674781
-0.034196522 0.015326149 -0.046768386 -0.044416323 -0.043006577 0.0056714388 -0.027717136 -0.0487652
0.0063325125 -0.040827375 -0.031232541 0.056611195 -0.03476426 0.018431416 -0.032363467 -0.039609693
-0.06296762 0.02482379 0.07191569 0.028650232 -0.020911623 0.064956814 -0.02290404 -0.074697144
-0.07490037 0.027289884 0.013883651 0.03304774 -0.039670985 -0.10135581 -0.069419876 -0.03018978
-0.031224847 0.034713376 0.026866745 -0.018740121 0.06906158 0.00079924124 -0.02305862 -0.03251837
-0.042193275 -0.07318863 0.045627803 -0.04682605 0.056554258 -0.05500297 -0.071932785 0.00021338329
-0.0907576 0.0003038656 -0.061153807 -0.061253384 0.015081435 -0.09858446 0.068811774 0.07472685
0.04382398 -0.03773025 -0.044146005 -0.017925838 -0.062278133 0.005937645 -0.015420695 0.024888404
-0.08660157 0.069425255 -0.039038103 0.029708952 0.039854333 -0.050874084 -0.095982894 0.019271897
0.03586464 -0.08743348 0.030641321 0.0057641007 0.07316054 -0.030738996 -0.07011199 0.025774851
00000000: 227e 7cbd d77c 92bd 578b 423d 262f 313d
00000010: c4cb 813c 11ac f73b 3670 5cbd 05e0 1abd
00000020: eaf0 42bd 3640 a4bd 16d7 ee3b c160 8dbd
00000030: ae13 423c 5403 9cbc e2da c3bd 4ac1 713d
00000040: 33c7 cd3c 10b5 b03c c96e 753c e5dd a13b
00000050: 0e09 3d3d a61f d7b9 9da1 0b3d 6f4a 933d
00000060: 99f8 f0bb 3d3d 613d f0c4 5b3d 85bf c8bd
00000070: 9eb4 b9bd a2d8 043d 4ba2 cfbd a901 74bc
00000080: 8e08 2e3d 8608 893d b58d 213d b056 863d
00000090: 3469 71bd f591 5fbd 4d97 f83c 355a e3bc
000000a0: 7953 59bd 5b4f 1fbd 75df cd3c 42bb f3bc
000000b0: 9e7f 5abd 3310 bd3c ac4f a6bd 979d 7cbd
000000c0: 1056 86bd ebd2 4f3d 8aa2 36bd a118 8aba
000000d0: 0dfb 933b bd11 9dbd 476e ec3c 6db8 0fbc
000000e0: 6176 b0bb c816 8cbd bbd6 6cbd bc3a 1b3d
000000f0: dcd3 74bc 9727 a43b e659 94bd 2ac7 803c
00000100: a996 3c3c 6cad 393c afaf 9fbd b27c bdbc
00000110: d915 c0bd 354a 883c 2f0b 223d 2543 9d3d
00000120: b76a a23d dafd 32bd f0a8 d0bd ba01 743d
00000130: afaa 783d 2e02 cbbd 63a0 8bbd 9de4 a5bc
00000140: 105e ebbc b907 d9bc a5fe fa3b 7006 103d
00000150: 382b acbc ce34 503d e7c0 ec3c 9c37 f2bc
00000160: 118c 5c3d 7ae8 3e3d 805f 573d e009 25bc
00000170: b74f b4bc a6db ee3c f633 77bd 59b2 eb3c
00000180: 6c3c a4bd 65a0 74bd 527a 61bd 403a cf3c
00000190: 80a7 c13c c7c2 8b3d d01e bbbd d6f3 adbd
000001a0: c8eb 4bbd 73ea c6bd 4560 2fbd cc48 2d3d
000001b0: b2d7 eb3c 58b0 91bd e937 81bd 221c 713d
000001c0: 527e 9e3b 99ec f4bc 3f41 4e3d c20b acbd
000001d0: f815 1e3c 9202 cdbd 5e41 3fbd a0a2 64bd
000001e0: 8906 8cbd 71c7 9cbd f6cf 81bc 6ac0 0b3d
000001f0: 1264 9dbd 4b29 6e3d 826a 553a 8199 233d
00000200: 0803 a03c b2bf cdbc 249d ee3b 5742 adbd
00000210: 95a1 a23c fdf0 b6bd c1c7 92bb fb8e 93bd
00000220: 5136 d93c 847f a5bd f71f 1ebd 44b4 73bd
00000230: 6c2b 4a3c 972c 6dbc e20b 94bd 0cfe 51bd
00000240: dbc2 0fbd 5d26 acbd 465f 893d ad7c d43a
00000250: 584e 5bbd f49e b0bd ccf6 88bc a91c be3c
00000260: 4ab6 99bd 7b53 4ebd f82e 073c d6a1 3a3d
00000270: 9187 793d 820b e9bc 2221 4bbd d38f 0ebc
00000280: 814f f83c fb5a 2fbc 9a0a 723d 3484 583d
00000290: 4efc 7f3d bcc1 bb3b e58a 95bd eb4d 7d3d
000002a0: 7980 863d db60 81bc a3c0 8bbd af12 6cbb
000002b0: 1c9c 423d fc9f 5fbd f569 91bc f52d 9dbd
000002c0: a711 0cbd 871a 7b3c 3590 3fbd e4ed 35bd
000002d0: aa27 30bd 7ad7 b93b 0c0f e3bc 05be 47bd
000002e0: f780 cf3b 9b3a 27bd 63db ffbc 24e1 673d
000002f0: f864 0ebd 7bfd 963c 8e8f 04bd c63d 22bd
00000300: 2bf5 80bd 435b cb3c 8948 933d e4b3 ea3c
00000310: da4e abbc 1408 853d 41a1 bbbc d1fa 98bd
00000320: 5d65 99bd 098f df3c 4178 633c 115d 073d
00000330: 0b7e 22bd a393 cfbd 022c 8ebd 8f50 f7bc
00000340: 40cb ffbc 9d2f 0e3d a617 dc3c e284 99bc
00000350: 2870 8d3d 2c84 513a 6ee5 bcbc fb31 05bd
00000360: dbd2 2cbd ece3 95bd 38e4 3a3d accc 3fbd
00000370: 70a5 673d cb4a 61bd 7f51 93bd a4bf 5f39
00000380: 1fdf b9bd 2750 9f39 6a7c 7abd d4e4 7abd
00000390: 2018 773c a6e6 c9bd 30ed 8c3d 640a 993d
000003a0: c680 333d 098b 1abd 71d2 34bd 35d9 92bc
000003b0: 5b17 7fbd 9490 c23b 15a7 7cbc c4e2 cb3c
000003c0: 2a5c b1bd d42e 8e3d 6be6 1fbd 3060 f33c
000003d0: 4c3e 233d 5861 50bd ae92 c4bd 19e0 9d3c
000003e0: cde6 123d 5310 b3bd 8203 fb3c c8e0 bc3b
000003f0: 31d5 953d 59d0 fbbc e096 8fbd c825 d33c

fc_value.bias f4 [256]
0.04539956 -0.055547733 -0.039164416 0.11034092 0.09684973 -0.079024 0.09681002 0.1376317
0.008162315 -0.046706792 -0.02859767 0.12731992 0.08878017 0.029206857 0.07832057 -0.07925375
0.13914017 0.11717525 0.023302754 0.14538427 -0.08937932 -0.051506493 -0.022029338 0.24347876
-0.051881466 1.0023769 0.010089264 -0.008631546 -0.069418676 -0.09494185 0.094784245 0.09711477
0.05646301 0.11364018 0.034207515 0.054209463 0.017759696 0.0657505 0.10414158 0.02420138
-0.07179077 -0.022656184 0.12667553 -0.019229483 -0.08568822 0.0893312 -0.1028697 0.11738677
0.010098526 0.027207939 0.15941872 0.11016214 0.16136312 -0.18057263 0.109223336 -0.042176872
0.13720787 -0.007452793 0.097840086 0.017966688 0.050772935 0.068537876 0.10652518 0.1577266
0.15076834 0.058426287 0.027718002 0.077284664 -0.07096084 0.09223935 0.060777627 0.08781906
-0.0022949304 0.093708836 0.013511424 -0.06904488 1.1206956 0.03647228 -0.228651 0.14136851
0.033593792 0.06206754 -0.016995996 0.07712267 0.062377475 0.049370963 -0.015823396 -0.030202258
0.13138646 0.21629338 -0.054436553 -0.0519593 0.17183992 0.008649116 0.050358538 0.15214731
0.030481774 -0.030110212 0.12371397 0.007028744 -0.08494128 -0.025600128 0.086514734 0.100047335
0.0929582 0.12020481 0.03569498 -0.021116406 0.0759855 -0.060606565 0.09735919 -0.06118063
-0.060418326 0.14522386 0.102850355 0.10069034 0.03812543 0.014195234 -0.028900236 0.11338554
0.0051921774 0.10828885 0.018603748 -0.0101078935 0.08073415 0.0062395474 0.033791915 0.27508292
0.060841653 -0.07311495 0.1224471 -0.083241105 0.063671924 0.0010948217 -0.014567962 0.11838866
0.07897798 -0.071206905 -0.088516444 -0.015918598 0.045277745 0.005519251 0.04017712 -0.03489821
0.15800275 0.12762931 0.013574915 -0.028064488 0.13389428 0.015112642 0.14507522 0.04879148
-0.072346985 0.05097807 0.10355693 0.12898298 0.11999981 0.0262107 -0.085706554 0.13227679
0.10753981 0.0780464 0.10913877 0.10515647 0.08602716 0.0007239285 0.13470763 0.018205065
0.023171596 0.036556505 -0.030146519 0.089516975 0.22416458 0.05218116 0.04995988 -0.035999715
0.104821175 -0.035981406 0.00080137927 0.07262483 -0.08716745 -0.04743953 -0.052494615 0.1551377
0.14820771 0.096549 -0.017009178 -0.01789847 -0.012671741 -0.079952635 -0.018934602 0.07261495
0.027718497 -0.030226564 0.074006 0.03615309 -0.05331794 -0.031415932 -0.071214974 -0.040968344
0.04144146 0.050482597 0.32306543 0.11131093 0.03486264 0.0516497 -0.090233564 0.01111617
0.0016265935 0.0024424405 0.02505566 0.1332326 0.16624732 -0.01779017 -0.0034014625 0.16761076
-0.11738488 0.088842414 -0.08689995 0.05676627 -0.0345085 -0.087811954 0.0058351383 -0.07977105
0.09160191 0.11148575 0.0020395147 0.04446967 0.018169675 -0.045339696 0.019510707 -0.027544644
0.016840687 -0.11952969 -0.044621974 0.033326123 0.095930204 0.06616553 0.03480621 0.031381566
0.11050986 0.081317075 0.03646796 0.47162032 0.018089814 0.12310075 -0.025234543 0.00590814
-0.06670855 0.020903805 0.11914332 0.1002513 -0.054698084 0.086418405 0.084701575 -0.03333816
00000000: e4f4 393d 0586 63bd de6a 20bd 6cfa e13d
00000010: 2759 c63d 56d7 a1bd 5544 c63d 53ef 0c3e
00000020: 3bbb 053c 9f4f 3fbd a945 eabc 2760 023e
00000030: 61d2 b53d 3843 ef3c 8966 a03d ca4f a2bd
00000040: c37a 0e3e 94f9 ef3d 6be5 be3c 9ddf 143e
00000050: 810c b7bd 79f8 52bd df76 b4bc 7f52 793e
00000060: a981 54bd e34d 803f 714d 253c 546b 0dbc
00000070: 612b 8ebd df70 c2bd 3e1e c23d 1ce4 c63d
00000080: c245 673d 2fbc e83d 2e1d 0c3d be0a 5e3d
00000090: c87c 913c 33a8 863d 2e48 d53d f941 c63c
000000a0: 0a07 93bd 7699 b9bc 3bb7 013e 2687 9dbc
000000b0: 4e7d afbd 47f3 b63d 59ad d2bd 7a68 f03d
000000c0: 4a74 253c 2fe3 de3c a93e 233e b09c e13d
000000d0: 603c 253e 08e8 38be 7cb0 df3d a8c1 2cbd
000000e0: 3880 0c3e 8f36 f4bb 6260 c83d e02e 933c
000000f0: 48f7 4f3d 965d 8c3d e029 da3d 1583 213e
00000100: 0463 1a3e 6750 6f3d dd10 e33c 6c47 9e3d
00000110: eb53 91bd fce7 bc3d f6f1 783d 7bda b33d
00000120: 8b66 16bb 6bea bf3d 055f 5d3c 6767 8dbd
00000130: f472 8f3f f563 153d 7d23 6abe e8c2 103e
00000140: a599 093d 883a 7e3d 303b 8bbc 7ef2 9d3d
00000150: 867f 7f3d 3539 4a3d 11a0 81bc ba6a f7bc
00000160: 2c8a 063e 037c 5d3e ddf8 5ebd 46d3 54bd
00000170: cef6 2f3e 06b5 0d3c c144 4e3d 81cc 1b3e
00000180: eab4 f93c b1a9 f6bc c05d fd3d 6151 e63b
00000190: b2f5 adbd 5cb7 d1bc a32e b13d 9ee5 cc3d
000001a0: de60 be3d f02d f63d e634 123d 50fc acbc
000001b0: 499e 9b3d 973e 78bd 4164 c73d 8a98 7abd
000001c0: 3579 77bd 90b5 143e 35a3 d23d bd36 ce3d
000001d0: 6929 1c3d 2093 683c 30c0 ecbc ae36 e83d
000001e0: 2423 aa3b 8bc6 dd3d e366 983c 949b 25bc
000001f0: f257 a53d 1e75 cc3b 6469 0a3d abd7 8c3e
00000200: 1935 793d 4abd 95bd 8cc5 fa3d 507a aabd
00000210: 6d66 823d 1f80 8f3a 76ae 6ebc c175 f23d
00000220: 35bf a13d edd4 91bd 1c48 b5bd b867 82bc
00000230: 2875 393d d5da b43b c490 243d 6df1 0ebd
00000240: 79cb 213e 42b1 023e 5269 5e3c 7fe7 e5bc
00000250: 951b 093e 049b 773c 998e 143e 93d9 473d
00000260: a82a 94bd 61ce 503d a815 d43d 1d14 043e
00000270: 76c2 f53d d2b7 d63c eb86 afbd 9173 073e
00000280: d53d dc3d cad6 9f3d 2684 df3d 465c d73d
00000290: 022f b03d 05c6 3d3a ccf0 093e ca22 953c
000002a0: 5cd2 bd3c 46bc 153d d5f5 f6bc ad54 b73d
000002b0: 668b 653e e9bb 553d bba2 4c3d 7074 13bd
000002c0: 7cac d63d 3d61 13bd a713 523a 54bc 943d
000002d0: d984 b2bd f44f 42bd 9804 57bd 6bdc 1e3e
000002e0: c3c3 173e 7bbb c53d d556 8bbc d09f 92bc
000002f0: 229d 4fbc 35be a3bd bd1c 9bbc 26b7 943d
00000300: e711 e33c b39d f7bc 7590 973d 4315 143d
00000310: ea63 5abd fead 00bd 28d9 91bd 6cce 27bd
00000320: 85be 293d d7c6 4e3d d568 a53e fcf6 e33d
00000330: 21cc 0e3d a38e 533d 60cc b8bd 9920 363c
00000340: 6c33 d53a 5a11 203b 8741 cd3c 206e 083e
00000350: bd3c 2a3e b1bc 91bc 12eb 5ebb 28a2 2b3e
00000360: 7c67 f0bd 03f3 b53d 9af8 b1bd c083 683d
00000370: c958 0dbd c1d6 b3bd b034 bf3b 015f a3bd
00000380: c899 bb3d a452 e43d 61a9 053b d425 363d
00000390: 92d8 943c 1eb6 39bd ebd4 9f3c 4ea5 e1bc
000003a0: 7bf5 893c fbcb f4bd 88c5 36bd f980 083d
000003b0: 0e77 c43d cb81 873d f590 0e3d f589 003d
000003c0: fe52 e23d 9189 a63d 6d5f 153d 3878 f13e
000003d0: 1731 943c 3f1c fc3d acb8 cebc 1299 c13b
000003e0: 7e9e 88bd 753e ab3c 6a01 f43d 8e50 cd3d
000003f0: 190b 60bd 22fc b03d 0578 ad3d 988d 08bd

value.weight f4 [1, 256]
-0.03657734 -0.049451806 -0.021476585 0.8691174 0.85094553 -0.028255152 0.698595 0.7889875
0.9156403 -0.006090092 -0.04075415 0.8228937 0.7630532 -0.013269681 0.77021873 0.028736912
0.88088995 0.8190118 0.7660607 0.83972615 0.0052492106 -0.01090754 -0.017768227 -0.87596923
0.0029940978 1.6558621 0.86945015 -0.023267062 -0.037966035 0.030250106 0.89050585 0.7516527
0.79290414 0.7904419 0.8305983 0.8186896 0.84390736 0.87630945 0.85371506 0.8448515
-0.038825735 -0.01433936 0.88870716 -1.1580676 0.021885179 0.85913205 -0.012708493 0.8903445
0.75321054 -0.028147826 0.7117421 0.85882115 0.73871976 -1.4512007 0.7634587 0.0040950486
0.81065196 -0.0127782915 0.8026782 0.009248652 0.0031184787 0.89135194 0.82430804 0.7599578
0.8397257 0.6692597 0.026488341 0.84161973 -0.004101811 0.877508 -1.3695483 0.8335457
-1.3804667 0.7091254 0.0034950182 0.003121492 1.6192284 -0.029859647 -1.4585509 0.797453
0.7557098 0.8424558 0.0013874238 0.82402235 0.044554792 0.806926 -0.028220605 -0.020147817
0.8210422 -0.9702039 0.033698067 0.062012754 0.69204557 -0.002265489 0.77857804 0.7947778
0.75894547 -0.0039682263 0.7687113 -0.019288553 -0.031116717 -0.019500894 0.81136954 0.8598027
0.8376858 0.8738415 0.82895184 0.0048643197 -0.035045717 -0.044740085 0.8032474 0.020446725
0.019829568 0.79957014 0.7674719 0.8865573 0.8671135 -0.0037588966 0.008099561 0.88607246
0.83374846 0.74854565 0.016521417 -0.0029867801 0.78538525 -0.016813807 0.020427544 0.72295314
-0.00020528592 0.011029521 0.75375247 0.002290978 0.81421995 -0.0043297126 -1.4008553 0.8544933
0.83808416 0.005902905 -0.0023004652 -0.003002169 0.0050294413 -0.0053634797 0.7633792 -0.027099282
0.85417885 0.8831201 0.0057928944 -1.231528 0.7751455 0.89877975 0.82432556 -0.019643713
0.00019814038 0.049074236 0.7306773 0.87899345 0.8132786 -0.051313926 0.030601209 0.71504414
0.8364406 0.8580892 0.7762799 0.7549626 0.7594098 -0.017037245 0.85778224 -0.07159895
0.88199466 -1.3004305 -1.1612368 0.636358 0.69635105 -0.022354782 -0.005200476 0.003158309
0.8378266 -0.052006252 0.54479927 0.7274407 0.039192274 0.0055963155 0.016855448 0.8478275
0.757231 0.8375559 -0.026632132 -0.0007431656 0.0397818 -0.027030181 0.0016534288 0.8406713
-0.004751827 -0.042848863 0.8135843 -0.045265798 -0.03359559 -0.018382715 -0.035663594 -0.029583342
0.86114216 -0.012589401 0.958989 0.84096295 -0.04168839 0.41848817 -0.027071295 0.82553667
0.71044874 0.91754514 -0.04979341 0.9241073 0.8050162 -0.036634594 0.8439324 0.88664603
-0.0033581776 0.80302364 -0.009715307 -0.010850526 0.016296178 -0.01576728 0.00665918 -0.0026451827
0.7988756 0.77513444 0.8635382 0.7570653 0.9307643 -0.0021396484 0.9386093 -0.045190044
-1.3236352 0.023861408 -0.05737392 0.72596496 0.8053674 0.8456072 0.7365109 -0.0052570803
0.80750406 0.76522505 -0.01825273 0.98157895 -0.0035813486 0.792951 0.018672837 0.004452604
-0.03264436 -0.036862303 0.86623013 0.8746075 0.05702448 0.73102814 0.7344363 -0.023190731
00000000: 1fd2 15bd fa8d 4abd aaef afbc 7a7e 5e3f
00000010: 91d7 593f 5977 e7bc 1fd7 323f 16fb 493f
00000020: 6767 6a3f 658f c7bb d3ed 26bd 29a9 523f
00000030: 7457 433f 1369 59bc 0e2d 453f ac69 eb3c
00000040: 0182 613f c2aa 513f 8e1c 443f 4bf8 563f
00000050: 9201 ac3b 8ab5 32bc ac8e 91bc 853f 60bf
00000060: a038 443b 4af3 d33f 4994 5e3f 919a bebc
00000070: 4682 1bbd 12cf f73c 31f8 633f 506c 403f
00000080: c4fb 4a3f 665a 4a3f 17a2 543f a495 513f
00000090: 500a 583f d155 603f 128d 5a3f 3048 583f
000000a0: bc07 1fbd a3ef 6abc 5082 633f 8f3b 94bf
000000b0: 8c48 b33c 14f0 5b3f 4837 50bc 9eed 633f
000000c0: 68d2 403f 4596 e6bc bb34 363f b4db 5b3f
000000d0: bd1c 3d3f f2c0 b9bf 0872 433f c22f 863b
000000e0: e386 4f3f 0a5c 51bc 527c 4d3f a887 173c
000000f0: 645f 4c3b a42f 643f da05 533f 988c 423f
00000100: 43f8 563f 9b54 2b3f 14fe d83c 6474 573f
00000110: 7c68 86bb 5da4 603f 5c4d afbf 4063 553f
00000120: 22b3 b0bf 3e89 353f ad0c 653b f291 4c3b
00000130: e042 cf3f 389c f4bc ccb1 babf e125 4c3f
00000140: 3376 413f 2fab 573f 38da b53a 21f3 523f
00000150: 167f 363d b492 4e3f e62e e7bc 090d a5bc
00000160: d22f 523f 485f 78bf fc06 0a3d 1601 7e3d
00000170: e629 313f 9978 14bb e450 473f 8f76 4b3f
00000180: 404a 423f e507 82bb 44ca 443f 0703 9ebc
00000190: 7ce8 febc 57c0 9fbc eab5 4f3f 081c 5c3f
000001a0: 9472 563f 14b4 5f3f 3036 543f df64 9f3b
000001b0: 198c 0fbd 6141 37bd 9fa1 4d3f e47f a73c
000001c0: 9e71 a23c a1b0 4c3f 0a79 443f 6bf5 623f
000001d0: 26fb 5d3f d257 76bb 05b4 043c a5d5 623f
000001e0: 8a70 553f b0a0 3f3f ec57 873c dbbd 43bb
000001f0: 020f 493f 1cbd 89bc aa57 a73c 7513 393f
00000200: 0542 57b9 2ab5 343c ecf5 403f 3c24 163b
00000210: b870 503f 43e0 8dbb 3a4f b3bf 13c0 5a3f
00000220: af8c 563f 286d c13b 67c3 16bb 0ac0 44bb
00000230: 03ce a43b 21c0 afbb d26c 433f 50ff ddbc
00000240: 77ab 5a3f 2914 623f 52d2 bd3b b6a2 9dbf
00000250: ef6f 463f 6e16 663f 0007 533f daeb a0bc
00000260: e7c3 4f39 1102 493d ab0d 3b3f b705 613f
00000270: 0733 503f 8d2e 52bd 63af fa3c 220d 373f
00000280: f920 563f bcab 5b3f 48ba 463f 3b45 413f
00000290: ae68 423f b191 8bbc 9e97 5b3f 78a2 92bd
000002a0: 67ca 613f 8274 a6bf 68a3 94bf 5ce8 223f
000002b0: 1044 323f 6021 b7bc c168 aabb a2fb 4e3b
000002c0: ce7b 563f 8204 55bd f777 0b3f 8e39 3a3f
000002d0: 1488 203d 4c61 b73b 7014 8a3c 390b 593f
000002e0: e4d9 413f 106a 563f a12b dabc 00d1 42ba
000002f0: 3ef2 223d 666e ddbc ddb7 d83a 3c36 573f
00000300: 37b5 9bbb 4a82 2fbd 1047 503f a168 39bd
00000310: 889b 09bd 5997 96bc fd13 12bd c458 f2bc
00000320: d073 5c3f c643 4ebc 4e80 753f 5949 573f
00000330: 72c1 2abd 1544 d63e 9fc4 ddbc 5f56 533f
00000340: f8df 353f 3de4 6a3f 2df4 4bbd 4c92 6c3f
00000350: 8b15 4e3f 280e 16bd f40b 583f 3cfb 623f
00000360: df14 5cbb f592 4d3f f32c 1fbc 68c6 31bc
00000370: 907f 853c 622a 81bc 4035 da3b cd5a 2dbb
00000380: 1c83 4c3f 366f 463f d710 5d3f 08cf 413f
00000390: 9246 6e3f 5839 0cbb b348 703f 3219 39bd
000003a0: e16c a9bf 0079 c33c ea00 6bbd d7d8 393f
000003b0: 8f2c 4e3f b779 583f fa8b 3c3f 9643 acbb
000003c0: 96b8 4e3f cae5 433f c086 95bc c248 7b3f
000003d0: 0fb5 6abb d6fe 4a3f c7f7 983c 26e7 913b
000003e0: 18b6 05bd edfc 16bd 42c1 5d3f 47e6 5f3f
000003f0: 8092 693d a924 3b3f 0404 3c3f 7dfa bdbc

fc_advantages.weight f4 [256, 128]
-0.081688814 0.21629944 0.16786636 -0.19463786 0.10568772 0.3345431 0.07232321 -1.1529231
0.25783816 -0.18636398 0.15530334 0.14148065 0.35708198 0.18417382 -0.37819558 0.34794065
0.16604975 -0.052066233 0.028812282 0.2271192 0.06754599 0.26991287 0.2936129 0.11039755
-0.17748068 0.06462156 0.206533 -0.02759357 -0.052685004 0.22298041 0.26527977 0.1588509
-1.0551419 0.024344934 0.28879362 0.17341259 0.060137223 0.11770791 0.40109465 -0.3855229
0.47578883 0.039015748 0.15579742 -1.6393903 -1.2769016 0.024404434 0.19844154 0.12653466
0.06447243 0.10303696 -0.2871166 0.28861168 -0.14250289 0.12036205 0.20523366 0.13658212
0.24483797 -1.1458895 0.14334711 -1.013087 0.24486227 -0.37351128 0.24799962 -1.1055397
-0.3462249 0.13870929 0.092460126 0.21024173 0.15584268 0.14456312 0.08560677 0.34110036
-0.6094705 -0.2989374 -0.57682294 -0.31739566 -0.050856233 0.241753 -0.045893393 0.28915522
0.024751786 0.07677227 0.13779102 0.046526004 -0.19124383 0.23619929 -0.091906734 -0.16442277
-0.03997922 0.25637808 0.21327561 -0.16880685 0.23083936 -0.15550172 0.07225684 -0.39858058
0.26500335 0.4077611 0.053919576 0.06275903 -0.662869 -0.7862255 0.27105495 0.37922227
-1.0737045 0.17355631 0.06987681 0.122717544 -0.1332361 0.2737411 -0.21614954 0.24221659
0.08842167 0.32566172 -0.08705511 -0.20835744 -0.06016658 0.2803393 -0.9126774 0.34053084
0.22289518 -0.30888015 0.14059144 0.31156984 0.31210062 -0.27806726 -0.06355715 -0.9900678
0.014901422 0.076892674 0.03758355 0.046393037 0.029864687 -0.032778036 0.012674727 0.035150915
-0.011337159 0.06917409 -0.016757797 -0.029973136 -0.018780762 0.010084635 -0.037806008 -0.051148288
-0.060431603 0.016450971 -0.005093962 0.05680936 -0.035935353 -0.06134785 -0.013648115 0.00021150536
0.035240423 0.073798895 -0.08542218 -0.0122940885 -0.009358334 -0.038452107 -0.064005874 0.0908038
0.023588823 0.022015648 -0.11844763 -0.024760567 -0.04592824 -0.069278836 0.039593987 -0.007510707
-0.110506594 0.05716374 -0.03779221 -0.08597797 0.06455715 0.09614138 -0.13194606 0.0027884978
-0.004965295 0.04391707 0.073540665 0.012494998 -0.0549661 0.036584124 -0.07396467 -0.011630644
0.0063127177 0.032093946 0.042854287 -0.06466602 -0.089321285 0.023399401 -0.013277099 0.07568423
0.052390777 0.027541952 0.041126173 -0.07484257 0.011179168 0.00046920055 0.0036799356 0.029002119
-0.0026028478 0.017940894 0.03796818 -0.041243304 -0.063530244 0.049535953 -0.024745353 0.03799938
-0.08291574 0.09875682 -0.05876355 -0.04321752 -0.07269597 -0.00394148 -0.081306435 -0.03593868
-0.051348437 3.2808653e-05 -0.085422106 -0.057394635 -0.07483613 0.0440412 0.0738628 -0.07296079
0.07136208 -0.12666698 -0.04671835 0.007084677 -0.034012698 -0.0029833834 -0.031792544 -0.07205093
0.053871594 -0.014027197 0.06160785 -0.060218435 0.035118137 0.043348998 -0.05055306 -0.057748385
0.0695629 -0.08521291 0.07802506 -0.042090546 0.022627976 0.01687583 -0.07203511 -0.079790145
-0.005864846 0.081129916 -0.08301572 0.0669238 0.052225787 0.07734442 -0.084038034 0.0077225934
00000000: 774c a7bd 9a7d 5d3e 29e5 2b3e 264f 47be
00000010: ce72 d83d 3c49 ab3e 311e 943d fc92 93bf
00000020: 5d03 843e 33d6 3ebe d707 1f3e 4ee0 103e
00000030: 73d3 b63e 1098 3c3e daa2 c1be 4725 b23e
00000040: f208 2a3e 6743 55bd bc07 ec3c f091 683e
00000050: 8d55 8a3d 0532 8a3e 6e54 963e 1c18 e23d
00000060: 7fbd 35be 4f58 843d 637d 533e e90b e2bc
00000070: 3bcc 57bd fa54 643e c0d2 873e cfa9 223e
00000080: e40e 87bf 076f c73c c2dc 933e 1293 313e
00000090: 7352 763d d810 f13d 475c cd3e 4263 c5be
000000a0: 989a f33e face 1f3d 5c89 1f3e 8bd7 d1bf
000000b0: 8371 a3bf cfeb c73c 4234 4b3e 4d92 013e
000000c0: 1f0a 843d 0b05 d33d f200 93be e9c4 933e
000000d0: 47ec 11be 6180 f63d c628 523e 2fdc 0b3e
000000e0: ceb6 7a3e 82ac 92bf 96c9 123e d6ac 81bf
000000f0: 2dbd 7a3e df3c bfbe 9df3 7d3e 5382 8dbf
00000100: 6444 b1be cf09 0e3e bc5b bd3d 9c49 573e
00000110: 3995 1f3e 5b08 143e 9a52 af3d b5a4 ae3e
00000120: 4206 1cbf 530e 99be abaa 13bf af81 a2be
00000130: a04e 50bd 198e 773e b6fa 3bbd 270c 943e
00000140: 42c4 ca3c c83a 9d3d 1719 0d3e 0d92 3e3d
00000150: 6cd5 43be 3ade 713e 9939 bcbd 715e 28be
00000160: 40c1 23bd fd43 833e ec64 5a3e b4db 2cbe
00000170: 2761 6c3e d83b 1fbe 65fb 933d c112 ccbe
00000180: 85ae 873e 10c6 d03e c6da 5c3d ce87 803d
00000190: c8b1 29bf 1346 49bf b7c7 8a3e 6c29 c23e
000001a0: 266f 89bf bfb8 313e 931b 8f3d 5653 fb3d
000001b0: 0b6f 08be cb27 8c3e 4e56 5dbe a007 783e
000001c0: 6c16 b53d 22bd a63e f349 b2bd a75b 55be
000001d0: 3b71 76bd a288 8f3e 3aa5 69bf 0f5a ae3e
000001e0: a23e 643e 8a25 9ebe 34f7 0f3e 1586 9f3e
000001f0: a7cb 9f3e d55e 8ebe 402a 82bd 1575 7dbf
00000200: 1825 743c e879 9d3d 35f1 193d a006 3e3d
00000210: caa6 f43c 4342 06bd a8a9 4f3c 68fa 0f3d
00000220: 7ebf 39bc 25ab 8d3d a647 89bc 398a f5bc
00000230: 1dda 99bc 063a 253c 79da 1abd de80 51bd
00000240: 2187 77bd 30c4 863c 40eb a6bb eeb0 683d
00000250: f330 13bd e247 7bbd 589c 5fbc 8ac7 5d39
00000260: 4358 103d e023 973d d3f1 aebd 256d 49bc
00000270: b353 19bc f57f 1dbd 8315 83bd 58f7 b93d
00000280: 593d c13c 295a b43c ac94 f2bd acd6 cabc
00000290: 401f 3cbd 10e2 8dbd 4e2d 223d 601c f6bb
000002a0: 4851 e2bd 8724 6a3d 01cc 1abd 3815 b0bd
000002b0: 8a36 843d c6e5 c43d de1c 07be 3bbf 363b
000002c0: eab3 a2bb 63e2 333d 7d9c 963d d2b7 4c3c
000002d0: 2224 61bd 3cd9 153d ca7a 97bd 758e 3ebc
000002e0: eada ce3b f174 033d fa87 2f3d 9e6f 84bd
000002f0: 14ee b6bd 1ab0 bf3c 3088 59bc 5500 9b3d
00000300: b697 563d a99f e13c eb73 283d 1047 99bd
00000310: d428 373c 08ff f539 132b 713b da95 ed3c
00000320: 8a94 2abb c8f8 923c 8684 1b3d bdee 28bd
00000330: 251c 82bd 36e6 4a3d c4b6 cabc 3da5 1b3d
00000340: bacf a9bd 0441 ca3d 0cb2 70bd db04 31bd
00000350: a0e1 94bd 8827 81bb fd83 a6bd 7034 13bd
00000360: bd52 52bd 069c 0938 c9f1 aebd a316 6bbd
00000370: af43 99bd 8c64 343d 6145 973d 776c 95bd
00000380: 4826 923d fdb4 01be be5b 3fbd 9426 e83b
00000390: e650 0bbd de84 43bb e638 02bd 708f 93bd
000003a0: 76a8 5c3d 54d2 65bc 8358 7c3d 9ba7 76bd
000003b0: 09d8 0f3d b88e 313d ba10 4fbd 9289 6cbd
000003c0: fe76 8e3d 1b84 aebd 9acb 9f3d 2367 2cbd
000003d0: 4e5e b93c 2e3f 8a3c 2587 93bd 0469 a3bd
000003e0: e52d c0bb 7127 a63d 2504 aabd 580f 893d
000003f0: b5ea 553d c066 9e3d 221c acbd cf0d fd3b

fc_advantages.bias f4 [256]
0.2283056 -0.04425534 0.08127418 0.039485786 -0.010737859 0.00092684035 -0.06985412 -0.071604945
-0.03139288 0.053240348 0.015449823 0.10936475 -0.07360048 -0.09152382 -0.05526412 0.33421198
-0.021404024 -0.014342173 0.022467082 -0.07045313 0.03653981 0.31673074 0.041334108 0.03525973
0.04910953 0.055708338 0.22037476 -0.057897583 0.21919355 0.20706937 0.07422618 -0.071159974
0.03523174 0.049398515 0.14102927 0.09415633 0.04115464 0.27076682 0.17294838 0.031287286
0.030894717 0.22927679 0.13831864 -0.0119634485 0.26565197 0.0042938786 -0.021223899 0.11707187
-0.048554886 0.12010816 0.13648349 0.23267029 0.02381782 -0.013444555 -0.046978146 -0.018670207
-0.11826712 -0.024238408 0.049620856 -0.046421856 -0.100364394 0.07066854 0.07999376 -0.03172594
-0.074859194 -0.0297489 -0.011148632 0.25464362 -0.008064401 -0.022184037 0.12761351 0.10142772
0.26882976 0.010034676 -0.030214293 0.21755224 -0.10369376 0.18412405 -0.028937768 -0.06710498
-0.010903313 0.03472679 -0.06754001 0.22921678 -0.069488384 -0.008871472 -0.00015703082 0.0639318
0.049636498 0.03094351 -0.024086205 -0.047403228 0.03184732 0.082038105 0.05906397 0.058063645
-0.061388865 -0.05828003 0.25079823 0.27460665 0.056544483 0.018968077 0.053536363 -0.0135169225
0.053466953 0.06605225 0.1521273 -0.08125709 -0.036764823 0.1400641 -0.055394676 -0.09388021
0.008635612 0.1360378 0.06535852 0.050481543 0.16384806 0.2269134 -0.038861576 0.032307472
-0.044750903 -0.044151217 0.22234428 0.071214035 0.071744666 0.056850802 0.22740902 0.04603245
-0.110394105 0.046112604 0.085883416 0.09627856 -0.07141167 -0.10076339 0.13227053 -0.109069645
-0.08613495 -0.056774624 0.060088098 0.12864323 -0.028976705 0.17713538 0.03264987 0.035452597
0.11087099 0.12720877 0.06443898 0.031169223 0.2791809 -0.0869413 0.02851824 -0.037231434
-0.076234974 0.023285786 -0.025368992 0.07666439 -0.0039079245 -0.0011053485 -0.00058751134 -0.10566172
0.21576822 0.038640056 0.013684558 -0.093295746 -0.026427316 -0.10942625 -0.096557446 -0.05903333
0.0068803118 -0.0406139 0.15967272 0.2705662 0.024109265 -0.03908071 0.12400062 0.17100725
0.081171975 0.023320373 -0.08531942 0.03699565 0.057959788 0.0525797 -0.062132597 -0.056957383
0.04652025 0.017824646 -0.032420427 -0.09147861 -0.011337068 -0.12048525 0.045038186 0.04217131
-0.08868398 -0.123199254 -0.002515423 0.09392014 -0.027243502 -0.032901116 0.19425371 0.059405558
0.0032380861 -0.092971094 0.17550758 0.04039074 -0.027668323 -0.03812392 -0.058614083 0.012655928
-0.08360532 0.007882352 -0.03820112 -0.080746934 -0.033752676 0.018775782 -0.10770557 -0.010968015
-0.027839128 0.07214163 0.0076179034 0.103731416 0.21651766 0.03613619 0.06157718 -0.10850875
0.0420868 0.016327782 0.086895645 0.10315535 -0.033237632 0.18282841 -0.030922974 -0.013441429
-0.03019062 0.013686465 0.25889844 -0.13969481 0.24883357 0.015182315 -0.032703005 0.14865336
-0.056897882 0.004628989 0.22643077 -0.052184947 -0.04839759 -0.019470265 -0.04674282 -0.13308235
0.06654466 0.16682279 -0.038949624 -0.04264855 -0.03541121 -0.050622173 -0.03443115 -0.062377427
00000000: f1c8 693e 1645 35bd 1473 a63d d9bb 213d
00000010: d8ed 2fbc 34f7 723a ad0f 8fbd 9da5 92bd
00000020: d295 00bd 8d12 5a3d 4121 7d3c a0fa df3d
00000030: d9bb 96bd d770 bbbd a15c 62bd d51d ab3e
00000040: 7e57 afbc 6ffb 6abc e30c b83c bb49 90bd
00000050: c5aa 153d 882a a23e f44d 293d 826c 103d
00000060: 1327 493d 6d2e 643d eca9 613e 0426 6dbd
00000070: 4674 603e fe09 543e e503 983d 52bc 91bd
00000080: 284f 103d 1956 4a3d fa69 103e 09d5 c03d
00000090: c591 283d f3a1 8a3e 6119 313e 1927 003d
000000a0: eb16 fd3c 89c7 6a3e 67a3 0d3e 5702 44bc
000000b0: 8903 883e aab3 8c3b bedd adbc 60c3 ef3d
000000c0: 7de1 46bd 44fb f53d 54c2 0b3e 1f41 6e3e
000000d0: 971d c33c 8d46 5cbc 286c 40bd 43f2 98bc
000000e0: 0836 f2bd a08f c6bc 3d3f 4b3d d824 3ebd
000000f0: d98b cdbd abba 903d c5d3 a33d 0ff3 01bd
00000100: c74f 99bd f7b3 f3bc c0a8 36bc a660 823e
00000110: 8d20 04bc 4cbb b5bc 1ead 023e 56b9 cf3d
00000120: 0ea4 893e 7b68 243c f783 f7bc 04c6 5e3e
00000130: 655d d4bd 048b 3c3e e60e edbc 566e 89bd
00000140: cfa3 32bc ae3d 0e3d 6b52 8abd ceb7 6a3e
00000150: ed4f 8ebd a759 11bc a4a8 24b9 adee 823d
00000160: a44f 4b3d 3e7d fd3c 6f50 c5bc e329 42bd
00000170: 5672 023d 9803 a83d 10ed 713d 25d4 6d3d
00000180: e472 7bbd 0ab7 6ebd a068 803e 3e99 8c3e
00000190: 309b 673d f162 9b3c f248 5b3d 1576 5dbc
000001a0: 2a00 5b3d 6746 873d 42c7 1b3e 1e6a a6bd
000001b0: b696 16bd f76c 0f3e 87e5 62bd 4444 c0bd
000001c0: 627c 0d3c 7e4d 0b3e b0da 853d bcc5 4e3d
000001d0: c9c7 273e fd5b 683e 512d 1fbd d754 043d
000001e0: b94c 37bd e8d7 34bd 38ae 633e aad8 913d
000001f0: deee 923d 63dc 683d e9dd 683e 868c 3c3d
00000200: 4e16 e2bd 92e0 3c3d a5e3 af3d b22d c53d
00000210: 4840 92bd 095d cebd ed71 073e e85f dfbd
00000220: 8567 b0bd 828c 68bd f01e 763d 0dbb 033e
00000230: 8e60 edbc fa62 353e dfbb 053d be36 113d
00000240: 5410 e33d 0443 023e 95f8 833d 9956 ff3c
00000250: cdf0 8e3e 480e b2bd 169f e93c fd7f 18bd
00000260: 1521 9cbd d5c1 be3c a2d2 cfbc 3802 9d3d
00000270: 0c0e 80bb 57e1 90ba 3803 1aba 2c65 d8bd
00000280: 58f2 5c3e 0945 1e3d 3235 603c d711 bfbd
00000290: 197e d8bc df1a e0bd e9bf c5bd efcc 71bd
000002a0: 3d74 e13b c35a 26bd 3f81 233e a787 8a3e
000002b0: cb80 c53c 1813 20bd 09f4 fd3d 861c 2f3e
000002c0: 7e3d a63d 5e0a bf3c f3bb aebd c088 173d
000002d0: 3e67 6d3d d05d 573d c07e 7ebd 254c 69bd
000002e0: 058c 3e3d fe04 923c 48cb 04bd 2359 bbbd
000002f0: 1cbf 39bc f9c0 f6bd f679 383d d3bb 2c3d
00000300: f29f b5bd e44f fcbd ccd9 24bb 3459 c03d
00000310: c42d dfbc 52c3 06bd 72ea 463e 3e53 733d
00000320: 1236 543b a167 bebd 42b8 333e c370 253d
00000330: aea8 e2bc d427 1cbd 5215 70bd cf5a 4f3c
00000340: 4439 abbd fb24 013c c778 1cbd a65e a5bd
00000350: 3f40 0abd abcf 993c bd94 dcbd 30b3 33bc
00000360: e20e e4bc febe 933d 9b9f f93b 2371 d43d
00000370: ceb6 5d3e 8b03 143d 5a38 7c3d d639 debd
00000380: 3563 2c3d d7c1 853c 58f6 b13d 1d43 d33d
00000390: 2f24 08bd 5f37 3b3e 2d52 fdbc 7039 5cbc
000003a0: 5252 f7bc 323d 603c 568e 843e 280c 0fbe
000003b0: 3ace 7e3e 3fbf 783c 96f3 05bd 9638 183e
000003c0: c10d 69bd c6ae 973b 78dd 673e e2bf 55bd
000003d0: 8d3c 46bd 1b80 9fbc 6675 3fbd bd46 08be
000003e0: 9148 883d 98d3 2a3e a489 1fbd 3fb0 2ebd
000003f0: 580b 11bd 3259 4fbd ad07 0dbd 797f 7fbd

advantages.weight f4 [2, 256]
0.26654384 0.055278964 0.46700847 0.0067501008 0.017719103 -0.28199142 -0.035059765 -0.026870962
0.34168038 0.58900523 -0.014468962 0.55852324 0.03452868 -0.017329402 0.04188938 -0.39792654
0.028274283 0.36142796 0.009381699 -0.090803266 0.037425723 -0.46859017 -0.08764551 0.0400245
-0.30806997 0.051389314 0.29477847 -0.0043924716 0.26687336 0.21260974 -0.041660164 0.04126775
0.04667586 -0.03596981 0.20623997 -0.5896665 0.365672 -0.41044778 -0.30115336 0.031075506
0.49493405 0.28406978 0.42892018 0.04396296 0.28157517 0.020726107 0.025432643 -0.48321095
0.016753262 0.28955144 -0.31024075 0.23573627 0.03508848 -0.052197542 0.043437973 0.04060834
0.022857271 -0.03690683 0.021157153 -0.008719708 -0.018388322 -0.008116246 -0.44227162 -0.056126192
-0.010912233 -0.055162344 -0.035895217 -0.41682392 -0.058493864 -0.043247133 0.37059826 0.37894568
0.23492022 -0.74318385 0.02522932 0.25303447 0.0416612 0.2497775 0.035058446 -0.012469959
0.049206365 -0.017220603 -0.22257262 0.2893511 0.055747114 0.02273043 0.034938868 -0.02642713
-0.040968634 -0.45170072 -0.034606237 0.022894496 -0.0041361605 -0.7136257 0.051012166 -0.030159386
-0.016338808 -0.01187364 0.2768661 0.24850652 0.013702941 -0.027078249 0.38862494 -0.008097446
0.3255741 0.5879414 0.2697046 -0.029664092 -0.012657909 -0.4025039 0.038738504 -0.7306446
0.059146132 0.43536878 0.34669486 -0.014287727 0.77476513 0.22785977 -0.0142824 -0.0011192814
-0.009591131 0.02587219 0.20500842 0.067903936 0.016742855 -0.020316578 0.27910358 -0.011155843
-0.0063595874 -0.006527984 -0.27546546 -0.24291138 -0.01774359 -0.0002810603 0.2942045 0.012655108
-0.031781908 -0.021303697 0.049296115 0.27312127 0.016360119 -0.24608661 -0.029918484 0.52323294
-0.27403644 -0.59669125 -0.011129327 0.011029031 0.32959387 0.24393764 -0.32601085 -0.38912445
0.0060324273 -0.06173941 -0.049328845 -0.52084196 0.56649244 0.66865945 -0.040948704 0.0020338017
-0.43430325 -0.021142697 0.039192356 -0.006818689 -0.03436344 -0.052213464 0.057286344 -0.012954384
0.60784954 0.008740185 -0.37487575 -0.4396072 0.00073629385 0.001041737 -0.5055574 0.6326785
-0.6472521 -0.002762912 0.022679217 0.0014495077 -0.02792719 -0.0007779531 -0.014667333 -0.038279515
-0.16703051 -0.020971663 -0.38037413 -0.029455561 -0.005628404 0.010523546 -0.011024034 0.5395925
-0.023534888 -0.023246814 -0.41500905 0.35379696 -0.04810376 -0.036099814 -0.30509883 -0.041053846
-0.013002857 0.0034853595 -0.33180305 0.0032259948 0.018236535 -0.032256145 0.04769608 0.039824456
0.032848064 0.0056036427 -0.006749651 0.010825038 -0.034513667 0.022534015 -0.009771391 0.023076145
-0.7554943 -0.012755395 0.033091974 0.32148296 0.27885047 0.3714386 -0.24267398 0.02274896
0.02107678 -0.013036323 -0.43960896 0.31559134 0.013816471 0.28045812 -0.04586866 -0.06110911
-0.020211257 0.03416875 0.2547712 0.22051877 0.3099746 -0.016568722 0.031021997 0.20702964
-0.034209557 0.0005935945 -0.42383194 0.005017839 -0.024716593 0.047414567 -0.36549798 -0.07152722
0.025281213 0.2966672 0.045933016 0.017616259 0.040921584 0.031014787 0.019095963 -0.035599012
00000000: 6f78 883e 326c 623d bc1b ef3e f32f dd3b
00000010: a727 913c 2e61 90be d49a 0fbd 7e20 dcbc
00000020: bbf0 ae3e 0cc9 163f 3a0f 6dbc 61fb 0e3f
00000030: f26d 0d3d 64f6 8dbc 3394 2b3d 07bd cbbe
00000040: 789f e73c 160d b93e b3b5 193c 10f7 b9bd
00000050: b74b 193d 0deb efbe 7d7f b3bd bbf0 233d
00000060: 59bb 9dbe 9a7d 523d 34ed 963e b9ee 8fbb
00000070: a0a3 883e 5eb6 593e d9a3 2abd 5f08 293d
00000080: 302f 3f3d 1455 13bd 9230 533e 62f4 16bf
00000090: 5c39 bb3e 3626 d2be c630 9abe 0f92 fe3c
000000a0: ff67 fd3e 9871 913e 6d9b db3e 8112 343d
000000b0: 9f2a 903e ccc9 a93c 1e58 d03c 6d67 f7be
000000c0: 233e 893c 1640 943e e0d7 9ebe d964 713e
000000d0: f0b8 0f3d 17cd 55bd 04ec 313d ee54 263d
000000e0: 2c3f bb3c 9e2b 17bd c451 ad3c 1bdd 0ebc
000000f0: 1ba3 96bc 01fa 04bc 6d71 e2be 94e4 65bd
00000100: 39c9 32bc e9f1 61bd dd06 13bd f269 d5be
00000110: 4397 6fbd e823 31bd 0ebf bd3e 2b05 c23e
00000120: ed8e 703e 4c41 3ebf b8ad ce3c bc8d 813e
00000130: efa4 2a3d acc5 7f3e 7299 0f3d cd4e 4cbc
00000140: 9d8c 493d 3912 8dbc 14ea 63be d425 943e
00000150: 1657 643d 2b35 ba3c 0f1c 0f3d b57d d8bc
00000160: bace 27bd 5145 e7be 45bf 0dbd 3d8d bb3c
00000170: a188 87bb 2db0 36bf 22f2 503d d110 f7bc
00000180: f7d8 85bc a889 42bc 65c1 8d3e 7e78 7e3e
00000190: 4d82 603c 34d3 ddbc d9f9 c63e 26ab 04bc
000001a0: a6b1 a63e 5483 163f b916 8a3e 1c02 f3bc
000001b0: 1e63 4fbc fe14 cebe 44ac 1e3d 860b 3bbf
000001c0: 3743 723d a8e8 de3e fd81 b13e 1217 6abc
000001d0: 0257 463f 1254 693e ba00 6abc dab4 92ba
000001e0: 1e24 1dbc eaf1 d33c baed 513e 3811 8b3d
000001f0: 5028 893c f46e a6bc aae6 8e3e ffc6 36bc
00000200: 1664 d0bb b3e8 d5bb cf09 8dbe c3bd 78be
00000210: 015b 91bc 465b 93b9 f9a1 963e 5f57 4f3c
00000220: bf2d 02bd 1785 aebc b9ea 493d 8dd6 8b3e
00000230: a805 863c 21fe 7bbe 9c17 f5bc 98f2 053f
00000240: 814e 8cbe c2c0 18bf c857 36bc 1cb3 343c
00000250: 87c0 a83e caca 793e e5ea a6be 523b c7be
00000260: abab c53b 77e2 7cbd 0b0d 4abd e655 05bf
00000270: a605 113f 442d 2b3f d4b9 27bd 8849 053b
00000280: ff5c debe 7333 adbc 2a88 203d 4f6f dfbb
00000290: aec0 0cbd c9dd 55bd 16a5 6a3d a03e 54bc
000002a0: 079c 1b3f fe32 0f3c b7ef bfbe 3214 e1be
000002b0: d803 413a e58a 883a 366c 01bf 38f7 213f
000002c0: 50b2 25bf f911 35bb c4c9 b93c 68fd bd3a
000002d0: 90c7 e4bc 8cef 4bba 414f 70bc fbca 1cbd
000002e0: 0c0a 2bbe c4cc abbc 66c0 c2be ca4c f1bc
000002f0: 7a6e b8bb f36a 2c3c 269e 34bc bc22 0a3f
00000300: 3dcc c0bc 1a70 bebc 117c d4be e024 b53e
00000310: 7308 45bd 66dd 13bd ea35 9cbe 1428 28bd
00000320: ef09 55bc a16a 643b 17e2 a9be 366b 533b
00000330: c964 953c 051f 04bd f75c 433d f81e 233d
00000340: b18b 063d c39e b73b 2d2c ddbb 805b 313c
00000350: 345e 0dbd 4199 b83c 2f18 20bc 2f0a bd3c
00000360: 1368 41bf 01fc 50bc 738b 073d 6a99 a43e
00000370: 7dc5 8e3e 332d be3e 877f 78be 075c ba3c
00000380: 36a9 ac3c 4d96 55bc 6d14 e1be 3095 a13e
00000390: 7b5e 623c 3598 8f3e c7e0 3bbd 8c4d 7abd
000003a0: 1492 a5bc 88f4 0b3d 5f71 823e accf 613e
000003b0: feb4 9e3e 21bb 87bc d821 fe3c 94ff 533e
000003c0: 521f 0cbd 749b 1b3a 8000 d9be af6c a43b
000003d0: 747a cabc c735 423d 8d22 bbbe dd7c 92bd
000003e0: 8c1a cf3c c3e4 973e 4224 3c3d f94f 903c
000003f0: 649d 273d b912 fe3c 236f 9c3c 45d0 11bd

advantages.bias f4 [2]
-0.06333026 0.0827596
00000000: 4cb3 81bd dd7d a93d
